runs/lstm_flood_prediction/best_model.pt (torch, 839546 bytes, 11 tensors)

lstm.weight_ih_l0 f4 [512, 4]
000000 00 15 11 3e 6d 2f 87 3d a5 c1 c4 3d 4c f0 d5 3b
       0.14168167 0.066008426 0.09607247 0.0065288898
000010 20 3a 41 3d a7 d1 bc bd c8 21 59 be e0 3e a8 bc
       0.047174573 -0.092196755 -0.21204293 -0.020537794
000020 89 c1 e5 bd 10 9b d5 bd e4 80 10 be d0 27 e2 bc
       -0.112185545 -0.104299664 -0.14111668 -0.027606875
000030 4f 19 0a 3e 16 2c 9a bc 3f 8b 9a 3d 04 f3 59 be
       0.13486217 -0.01881985 0.0754609 -0.2128411
000040 0f 91 bd 3d 2c 36 88 3d 74 97 c9 bd c1 e0 83 3d
       0.09256183 0.066509575 -0.098433405 0.06439353
000050 57 e0 c6 3d 2a d4 f6 3c 22 77 7e 3c 70 ff cf 3c
       0.09710758 0.030130465 0.015531333 0.025390357
000060 1c 12 0a bd c7 5b 5e bc 49 e9 97 3d 8a 30 cc 3b
       -0.033708677 -0.013571686 0.074175425 0.0062313722
000070 a7 98 ad 3d 42 bc 2e bd 18 4b de 3d 91 ad 9a bd
       0.08476382 -0.042660005 0.10854167 -0.075526364
000080 5d 04 21 3e e5 7e 9c 3d 17 a1 49 3d 01 51 e4 3c
       0.1572432 0.07641391 0.049225893 0.027870657
000090 c7 a3 88 3d 22 ff fa 3d 6d 54 9c 3c db b8 50 3c
       0.06671863 0.12255694 0.019083226 0.0127393855
0000a0 c4 80 02 3d cb 25 bc 3b f2 53 07 bc 18 5f 8c bc
       0.03186108 0.00574181 -0.00825976 -0.017135188
0000b0 ed 57 d5 3d 70 35 86 bd 1b 91 7f 3d f9 ef cb bd
       0.10417161 -0.06553161 0.062394243 -0.099578805
0000c0 97 e9 10 3e 7d 46 8e bd 69 85 c4 3d 84 5a 88 be
       0.14151607 -0.06947038 0.095957585 -0.26631558
0000d0 6e 5f 54 bd a1 96 0b bd dd b8 2e 3d 84 bd 2e bd
       -0.05184882 -0.034079198 0.042656768 -0.042661205
0000e0 a7 c1 bb bd d2 cf 0e 3d 0c c8 00 3d 42 30 4d 3c
       -0.09167796 0.03486616 0.03144078 0.012523713
0000f0 84 31 90 3d 96 39 4d bd 29 2e 3f bd 1c a5 f2 bc
       0.07040694 -0.050103746 -0.04667488 -0.029619746
000100 fa 8e 31 bd 22 d9 33 3e 90 9d 45 bd df e3 ea 3d
       -0.043349244 0.17563298 -0.048245966 0.11469244
000110 d9 e0 8f 3d 64 dd 4d 3c 7b 2b f7 3d 3f 2f 2c bd
       0.07025308 0.012564991 0.1206884 -0.042037245
000120 18 9b 28 3d e4 50 ea 3b e5 c6 52 3d bb 31 54 bd
       0.041163534 0.007150756 0.05145921 -0.05180524
000130 d1 70 86 bd bc ae c4 3d 8e a0 c1 3b b7 17 d0 3d
       -0.06564487 0.096036404 0.005909032 0.10160773
000140 1d 02 0b 3d 38 a7 0d 3e 16 1c 97 bd 9b 54 2f 3e
       0.033937562 0.1383332 -0.07378404 0.17122118
000150 48 69 6f 3e d2 2e cc 3d e1 2a ad bc 95 0d 0e be
       0.23380005 0.09969868 -0.02113861 -0.13872369
000160 37 5f c7 bd 7d 29 37 3d 07 56 2c bc 7d 91 b4 3d
       -0.09734958 0.0447173 -0.010518557 0.08816812
000170 ea 51 f8 3c 44 7d 1c 3d 8b e7 15 bd e1 ef 33 bd
       0.030312497 0.0382054 -0.03659777 -0.04392994
000180 e2 99 cb 3d 8e 32 aa 3d 30 b8 5c bc 0b 89 20 bc
       0.0994146 0.08310424 -0.013471648 -0.009798299
000190 98 bc aa bd 35 55 9c bd e9 3e a1 3d 97 be 9e bc
       -0.08336753 -0.076334395 0.07873327 -0.01937799
0001a0 33 67 96 bc 36 9b 7c 3c f4 d4 ae 3d f6 fa 16 be
       -0.018359756 0.015417865 0.08536711 -0.14744172
0001b0 a7 b5 03 be 5c 04 77 bd 1c 03 1d 3b 93 9a 6e 3e
       -0.12862264 -0.06030689 0.0023958152 0.23301153
0001c0 91 81 81 3d e5 23 e1 bb 07 94 e9 bc b2 94 29 be
       0.06323541 -0.006870734 -0.028512968 -0.16560629
0001d0 2e 6a 14 be d6 85 42 bc 0b 49 6c bd 92 ca 75 3d
       -0.1449363 -0.011872729 -0.057686847 0.06000764
0001e0 a4 fc 7a bd 7f 4a 3b 3d 0a 98 2e 3d 44 66 54 3e
       -0.061276093 0.045725342 0.042625464 0.20742136
0001f0 7e 37 18 bd 16 20 15 3d 7e e8 3c 3d 36 cd 76 3c
       -0.037162296 0.036407553 0.04612016 0.015063575
000200 b5 e2 64 bc 96 34 0d 3e 50 c6 11 3e 22 9b 4b bd
       -0.013970067 0.13789591 0.14235806 -0.049708493
000210 01 e1 9a 3d 3e fd 7f bd 69 08 ff 3c 4d e6 21 bd
       0.07562447 -0.06249737 0.03113194 -0.039526273
000220 ff b1 4a 3d d0 ac 77 3d bd 32 7c 3d 51 51 c1 3c
       0.049486157 0.06046754 0.061571825 0.023598345
000230 29 b6 8a 3c 10 d0 14 bd d6 2f 0f 3c 86 47 7c bd
       0.016932564 -0.036331236 0.008739432 -0.061591648
000240 2c 8c 24 bd 31 26 53 3e ee e2 29 3c 7b 8e 61 3c
       -0.04017274 0.20620038 0.010369046 0.01376688
000250 a0 b3 58 3d d1 a4 e6 3d 08 c8 8f bc 48 fb bc 3d
       0.05290568 0.11261905 -0.017551437 0.092276156
000260 c0 3e 88 bd 72 e1 f5 3d b8 60 a2 3d 24 b2 fa 3d
       -0.066525936 0.12005891 0.07928604 0.12241009
000270 f4 52 cc 3d cf e6 3f 3e 08 18 ba 3d 1b e9 a1 3d
       0.099767596 0.1874039 0.09086615 0.079057895
000280 38 db 92 39 dd cd 28 3d 54 7e 8e 3d dd 4c 00 bc
       0.0002801062 0.04121195 0.06957689 -0.007830826
000290 24 1c 8d bd 21 6d cf bd b9 dc e5 bd bd 7d 1c be
       -0.06890133 -0.101282366 -0.1122374 -0.1528234
0002a0 f3 02 e9 3d bd b7 03 3e 4e 4d 48 bb 8f 29 c3 bc
       0.11377516 0.1286306 -0.0030563655 -0.023823528
0002b0 33 57 e3 3d a9 48 81 bd c6 e8 ff bc 12 e1 0c be
       0.11100616 -0.06312687 -0.031238925 -0.13757733
0002c0 72 b6 83 3d e6 70 01 3e 3f b7 be 3d 35 6a b9 3c
       0.06431283 0.12640724 0.09312295 0.022633651
0002d0 76 08 91 3d d2 6b f0 3d 16 e9 4f 3d 51 cf 9a bd
       0.07081692 0.11739315 0.050759397 -0.07559074
0002e0 c6 40 07 bd a7 fe 7b 3c 8f 3e c3 3d f1 6a 80 bb
       -0.033020757 0.015380538 0.095334165 -0.0039189984
0002f0 8a 8d 86 bd d6 1a fd bd a5 2f 79 3d 9d f3 1f 3d
       -0.06569965 -0.12358634 0.060836453 0.039050687
000300 e6 2e 09 3e 54 1e 76 3d 1c df 77 3d 84 52 45 3d
       0.13396797 0.060087517 0.060515508 0.048174396
000310 be b1 96 3c f5 9a 67 bd 32 92 df 3d e1 4b e6 bd
       0.018395301 -0.056544263 0.109165564 -0.112449415
000320 a2 6e 09 3e 7a ce ab 3d b4 aa 60 3d e6 3a 35 3c
       0.1342111 0.08388992 0.054850295 0.011061406
000330 05 17 58 bd 02 d6 32 3d a3 4c a1 bc da c9 31 bd
       -0.052756328 0.043661125 -0.019689864 -0.04340539
000340 4f f4 29 3d b9 4e ff bc b4 a5 60 3c 87 85 00 bd
       0.041492756 -0.031165468 0.013711382 -0.03137734
000350 c9 eb be 3c b8 13 e8 3c 7c 8e 76 3d a3 df bf bd
       0.02330579 0.028329715 0.060194477 -0.09368827
000360 09 42 26 3d 09 39 aa 3c 16 48 1c 3d 07 a8 fb 3d
       0.04059032 0.02077915 0.038154684 0.12287908
000370 01 ec 4c bd dd 54 50 bc cf a7 31 bc 3b 0f 3c bd
       -0.05002976 -0.0127155455 -0.010843231 -0.045912962
000380 b1 6d 08 3e 8f c8 fc bc 3f 7f 1c 3e 6f 48 94 3d
       0.13323094 -0.030857353 0.15282916 0.07240378
000390 c4 57 f0 ba 3e 8e 36 3e 2c 4a 8a 3e d1 18 c5 3b
       -0.0018336703 0.17827699 0.27009714 0.0060149212
0003a0 eb a1 74 3d bb d2 20 3e 9d 2c 22 bd cf 67 0f 3d
       0.05972473 0.15705387 -0.039593328 0.03501111
0003b0 59 1b 8b 3d 0a 8c af bd 77 68 c1 3d d3 f0 10 be
       0.067923255 -0.08571632 0.09443753 -0.14154367
0003c0 80 c9 ae bd 9f 20 0a 3e 1e 4c 8f 3b 8e fe a3 3d
       -0.08534527 0.13489006 0.0043730875 0.08007537
0003d0 a1 35 ea bd 8f 93 94 3d 01 97 fb 3d 35 57 91 3c
       -0.1143601 0.07254707 0.12284661 0.017741779
0003e0 21 2a 83 bd 1b 7d 2c be ed 58 11 be 76 8b 08 be
       -0.0640452 -0.16844599 -0.14194079 -0.1333445
0003f0 15 96 b7 3c dc ba c7 3d 5a 9a 76 bd ca 8d 47 bc
       0.022410432 0.097524375 -0.060205795 -0.012179801

lstm.weight_hh_l0 f4 [512, 128]
000000 8e 70 af bc c7 45 80 bd 16 06 2c bd 43 6c 0e 3c
       -0.021415975 -0.06263309 -0.04199799 0.008692804
000010 ee bd eb 3d 48 79 74 bd 73 8c 95 bd 90 00 82 bd
       0.115108356 -0.059685975 -0.07302179 -0.063477635
000020 c0 10 7b 3d f5 20 35 3d c1 a7 7d bd fa 90 27 3d
       0.06129527 0.044220883 -0.06192756 0.040909745
000030 af 4e 02 3d 93 0c 12 bd bb fd f6 ba 90 e0 8e 3d
       0.03181332 -0.035656523 -0.0018843928 0.06976426
000040 7b b8 a4 3d be 43 fa 3c a8 cb 5a 3c 29 38 28 bd
       0.08042999 0.03054988 0.0133542195 -0.041069183
000050 05 0a 29 bd f8 73 88 39 fe 34 66 bc 66 4b 28 3d
       -0.04126932 0.00026026345 -0.01405072 0.04108753
000060 cb 4f bc bd 0e 2b 4b 3b 8f 4c 35 bc d0 de 94 bd
       -0.09194907 0.0031001004 -0.011065616 -0.072690606
000070 5e 3e a5 3d d2 aa b0 3d 7a 5d 1f bc 01 30 23 bc
       0.08068536 0.086263314 -0.009726876 -0.0099601755
000080 8c d1 a9 bd ea a8 7a bd 21 8a 1f 3d af 36 1f bd
       -0.08291921 -0.061196245 0.03895009 -0.03887051
000090 28 56 93 3d 80 7f d0 bc 21 63 9d 3c d5 fd 98 3d
       0.071941674 -0.025451422 0.019212307 0.074702896
0000a0 96 13 28 bc d8 91 61 3d d8 8a a1 3d 46 02 ab bd
       -0.010258576 0.055070728 0.078878105 -0.08350043
0000b0 34 c1 5a 3d 19 64 a8 bd 51 c0 e4 3d 0a 42 b1 ba
       0.05340691 -0.08222217 0.11169494 -0.001352371
0000c0 8e d7 6e b9 67 cc 0d 3d ef 15 df bc 44 8a 05 3e
       -0.00022777749 0.03461876 -0.027232138 0.13041025
0000d0 55 15 5e bd e1 31 ad bd f0 e8 c8 3d ab 39 8d bc
       -0.054219563 -0.08456779 0.09810054 -0.017239412
0000e0 9a b4 81 3d 96 a6 b2 bc dc e0 a8 3d ba dc 98 bc
       0.06333275 -0.02180795 0.082460135 -0.018659938
0000f0 1e bc 11 bd 38 1d 94 bd cb a8 85 bd e0 31 0f bd
       -0.035579793 -0.072321355 -0.06526335 -0.034959674
000100 d8 c0 7b bd 09 d9 b1 3c 34 95 b2 3d 93 8c ce bc
       -0.061463207 0.021709936 0.087198645 -0.025213515
000110 07 b4 57 bd 4e 45 9d 3d d0 d2 72 bc d6 ff 9a 3d
       -0.05266192 0.076792344 -0.014820769 0.07568328
000120 db 11 8c 3d 37 ed 13 bc 26 51 dc bd d9 26 ab 3d
       0.06839343 -0.009028724 -0.10757665 0.08357019
000130 65 28 00 bd e1 83 b0 3d 66 91 34 bd 58 f1 20 3d
       -0.031288523 0.08618904 -0.044083975 0.039292663
000140 44 8c 25 3d e0 48 83 bc d3 70 6d 3d 20 6d 94 bd
       0.04041697 -0.01602596 0.057968926 -0.072473764
000150 0d 53 86 bc ea 0d 35 bc 2f 8a 91 3d 62 d0 fc 3c
       -0.016397024 -0.011050681 0.071064346 0.030861083
000160 ad cb 91 3d a6 8b c1 3d 23 2a 9f 3d 29 34 09 bd
       0.07118926 0.09450464 0.07771709 -0.03349701
000170 2f 2f 0b bd e9 a0 bb ba 7f 1c 21 3d 52 97 ff bc
       -0.033980545 -0.0014314923 0.039333817 -0.031200085
000180 5e 70 4f 3d f2 8c ba 3c e6 ee 9d 3d 06 a6 df 3d
       0.05064427 0.022772286 0.07711582 0.10920338
000190 fe f1 98 bc a8 6c 7e 3d 1a c4 8e bc 0b c0 91 bd
       -0.018670078 0.06211534 -0.017427493 -0.071167074
0001a0 64 37 28 3d e9 b9 80 3d 45 20 ae 3d e7 23 29 3d
       0.04106845 0.062854595 0.08502249 0.041294005
0001b0 41 e8 8f 3c b3 d3 55 3d 8f c5 ad bd 9d 06 93 bb
       0.017566802 0.052203845 -0.08484947 -0.0044868723
0001c0 ac 94 aa 3d b8 2b 41 3c 56 14 b7 bc b6 8e 63 3d
       0.08329138 0.0117902085 -0.022348564 0.05555602
0001d0 be 00 2d 3c da a5 0a 3d 59 21 d2 3c 05 fc a2 bd
       0.010559259 0.033849575 0.025650667 -0.07958225
0001e0 64 2f b5 bd 31 a5 3c bd 53 2c f1 3c c6 bf 5d 3d
       -0.0884693 -0.046055976 0.02944008 0.054137968
0001f0 1d 2d 08 be d4 46 ca 3c 96 a9 90 3d c5 66 83 bd
       -0.1329846 0.024691977 0.07063596 -0.06416086
000200 76 f4 2b 3e bb 85 62 bd ea 4a eb 3d ff ff e6 3d
       0.16792473 -0.055303317 0.11488898 0.11279296
000210 21 ad a6 3d e3 73 a7 3d be 28 58 bc 5a 1d 2b 3d
       0.081384905 0.081764005 -0.013193307 0.04177604
000220 78 63 12 be 9d af 32 bd 02 3d 3a 3d 8e 57 9d 3d
       -0.14295757 -0.04362451 0.045468338 0.07682715
000230 59 31 30 bd 6f 6b 4c 3e a9 95 e0 bd 5e c7 e8 3d
       -0.04301581 0.19962858 -0.109660454 0.11366151
000240 a8 9f ea 3d 82 ce 0d be 9f 60 19 3e d8 01 bb 3d
       0.11456233 -0.13848308 0.14978264 0.09131211
000250 dc f3 cf bd c1 0f 6f bd 68 08 1d be 6c 7d 16 be
       -0.10153934 -0.058364633 -0.15335238 -0.14696282
000260 1a 31 3f be 70 17 17 3e ca 19 a1 3b 9f 33 dd bd
       -0.18671075 0.14755034 0.0049164044 -0.108008616
000270 a6 8d d1 bd 22 f6 2a bd 3d 96 04 be 1e e1 a6 bc
       -0.102320954 -0.041738637 -0.12947936 -0.020371016
000280 3f 6a 88 3d ae 43 03 3e d7 3c 38 3e e5 4e 37 3e
       0.0666089 0.12818787 0.17991959 0.1790119
000290 6c 1a b8 3d 8e 2c 45 3e 7d 92 46 be 0d 16 4a 3d
       0.089894146 0.19255278 -0.19391818 0.049337436
0002a0 8e 17 3a 3e 6e e0 05 bd 2f f5 71 be 7b f6 29 3d
       0.18173048 -0.032684736 -0.23628686 0.041494828
0002b0 68 ea 82 3e 48 13 1f be 43 7d 00 bd 9c 41 4a 3c
       0.25569463 -0.15534699 -0.03136946 0.012344744
0002c0 88 27 00 be 64 77 6a 3e eb b4 15 3c 58 50 50 3c
       -0.1251508 0.22897106 0.0091373725 0.012714468
0002d0 eb d6 89 3d b4 87 0c 3d c0 e2 a6 3d e4 92 8f bd
       0.067304455 0.034309104 0.08148718 -0.07010439
0002e0 4e f1 36 be b9 33 05 3e 28 ac e4 3d 58 75 2e bd
       -0.17865488 0.13008012 0.11165649 -0.042592376
0002f0 bf 4f 20 3e 74 58 c4 3d 5e 92 03 be c3 8a ed bc
       0.1565542 0.095871836 -0.12848803 -0.02899683
000300 f5 13 55 3e 60 38 b3 bd 9c e9 5f 3d c4 d0 00 3e
       0.20808394 -0.08750987 0.054666147 0.12579638
000310 45 54 90 bd ce 79 22 3e 0d 91 1b bd eb 58 17 be
       -0.07047323 0.15866777 -0.037980128 -0.14780013
000320 2a 30 0d be 07 ad 53 3c 0c be c6 3d f5 63 2f be
       -0.13787904 0.012919671 0.09704217 -0.17127974
000330 d0 a7 6f be 26 81 54 be 29 c5 03 3e 07 20 04 3e
       -0.23403859 -0.20752391 0.1286818 0.12902842
000340 7c 5d 9a 3d 1c 49 d6 3b 7f 4a bf bc 3f 7c 6e 3d
       0.07537362 0.006539477 -0.023350952 0.05822396
000350 09 ab 01 3e d0 57 47 3d 1c ea 6d 3e f5 ee 33 be
       0.12662901 0.04866773 0.23233837 -0.17571624
000360 a1 56 d9 3d fa e7 8f be 4c 4f 52 be 79 ec a4 3d
       0.10612226 -0.28106672 -0.20538062 0.08052916
000370 6b f3 75 3c a6 96 22 bd 72 16 c7 bd 2c 8d 9b bd
       0.015011649 -0.03969445 -0.09721078 -0.07595286
000380 d9 08 ba 3d e1 66 08 be d4 b5 18 3e eb 69 27 3e
       0.09083719 -0.13320495 0.14913112 0.16348998
000390 ff ee 19 3b df 28 0b 3e c6 38 15 3e 9a 39 87 bc
       0.00234884 0.1358981 0.14572439 -0.016506959
0003a0 4f f3 9f 3d 06 7f 12 3d 75 e2 f6 3d b1 8d 58 3e
       0.07810079 0.03576567 0.12054912 0.21147801
0003b0 c8 d6 02 3d 8e 4e 09 3e 9b 1a c7 bd 5a ae 57 3d
       0.031943113 0.13408872 -0.097218715 0.05265651
0003c0 87 35 8a 3d d0 be 77 bd 8e 75 77 3e 44 28 6e 3d
       0.06748491 -0.060484707 0.24165937 0.05814387
0003d0 23 41 00 be 3d 61 68 3e 32 5c 6a bd 3c ce 08 3e
       -0.12524848 0.22693343 -0.05721683 0.13359922
0003e0 f4 de a7 3b 59 a3 41 bc bb 62 31 3e e9 47 55 3e
       0.0051230136 -0.01181873 0.17322819 0.20828213
0003f0 ff 35 ec bc 35 04 c1 3d df 45 04 bd 99 a3 8e 3d
       -0.028834341 0.094246306 -0.032293197 0.069647975

lstm.bias_ih_l0 f4 [512]
000000 46 06 dd bd c8 b4 dd bd bb ef 53 bd 10 ef 51 bd
       -0.10792212 -0.10825497 -0.051742297 -0.05125338
000010 d8 88 8e 3d e1 79 8c 3d b9 71 9f bb 6c ca fb bc
       0.069596946 0.06859184 -0.0048658517 -0.03073617
000020 1b fe ac bc 77 0f 4f b8 5f f3 75 3c 79 21 3e 3d
       -0.02111726 -4.936705e-05 0.0150116375 0.04641864
000030 ab 9c 14 bd c6 f8 d8 bc 32 ab 43 3d 42 23 85 3d
       -0.036282223 -0.026485812 0.047770686 0.065008655
000040 b5 88 2e 3d 0e 2b 1b 3d b4 f0 47 3d a5 9f c3 bd
       0.042610843 0.037882857 0.048813537 -0.09551934
000050 a7 e7 1c bd 44 8f aa bd ea cf 92 bd 55 7d 4a bd
       -0.03830686 -0.08328107 -0.07168563 -0.049435932
000060 6a 1d c9 3d 75 37 82 3d 08 ca f0 3c de 8f a3 3d
       0.098200634 0.06358234 0.029393211 0.07986425
000070 6b 37 4e 3d 56 85 cf 3d 56 51 fe 3c eb 3a 02 3d
       0.05034582 0.10132854 0.031044643 0.03179447
000080 20 63 e5 bc 4b 57 5e 3c 3e 6e a3 bb ea f7 f8 3d
       -0.028001368 0.013570617 -0.004987507 0.12156661
000090 f9 12 79 bd dc ac 43 bd 90 5d 82 bd 8e 72 8b bc
       -0.06080911 -0.047772273 -0.06365502 -0.017022397
0000a0 0a 6f 95 bb 87 b9 3a 3d 3e bf b3 3d 4f 20 cb bd
       -0.004560356 0.04558709 0.08776711 -0.09918272
0000b0 c4 5f 07 3e ef af 77 3c 35 4c ec 3a a0 a7 00 be
       0.13220125 0.015117629 0.0018028083 -0.12563944
0000c0 f4 56 2f bd 4b 25 a9 bd 1d 48 99 3d 52 97 e8 3c
       -0.042807534 -0.08259066 0.07484458 0.028392468
0000d0 d5 a1 25 bd 47 8a 92 3d 18 01 3a 3b b4 7c 61 3d
       -0.04043754 0.071552806 0.0028382 0.055050567
0000e0 e0 57 59 3d bf ec 9d 3d 21 fe 90 bd f5 ac 56 3d
       0.05306232 0.07711171 -0.07079721 0.05241104
0000f0 88 38 2e 3e 78 43 d9 bd 95 b6 01 be 47 4a a3 3b
       0.17013752 -0.10608572 -0.12667306 0.00498322
000100 4b 0b 28 bc 87 23 74 bd 11 3a 8e bc aa f4 17 bd
       -0.010256599 -0.059604194 -0.017361673 -0.037098564
000110 93 53 82 3d 1b 1c 1a 3d cf b0 6e 3d 80 b7 96 bd
       0.06363597 0.03762446 0.058274087 -0.073592186
000120 ec b7 47 bd 42 a1 c4 3c 30 ad 80 bc 38 d3 46 3d
       -0.048759386 0.024002675 -0.015707582 0.048541278
000130 3e b5 84 bd c7 0d 21 3c 09 e0 c6 3c a9 10 68 3d
       -0.06479882 0.009829945 0.02427675 0.056656513
000140 c0 79 82 bd 91 6e 7d 3d 7d 3a 8d 3d 87 fe 55 bd
       -0.06370878 0.061873022 0.068959214 -0.05224469
000150 29 89 17 bd e8 f7 8b bb 40 16 b3 3d a1 28 62 3d
       -0.03699604 -0.004271496 0.08744478 0.055214528
000160 7f 21 8c bd fd 2b ae 3c 35 42 8f bd 42 af c6 3d
       -0.068423264 0.02126121 -0.0699505 0.097013965
000170 e9 f3 96 3d 95 ab 5e bd 23 9c 97 bc 3e 25 39 bd
       0.07370741 -0.054362852 -0.018507069 -0.045201533
000180 06 2e 75 3d fe 12 ff bc c2 d1 f5 bd 47 e8 3c bb
       0.059858344 -0.031136986 -0.12002899 -0.0028824972
000190 73 cc da 3d 81 ee 4d 3d b6 30 a0 bd b1 b9 fe 3d
       0.10683527 0.050276283 -0.07821791 0.124377616
0001a0 66 2f dd 3b f2 fa 91 3c e9 a3 30 bc 87 b8 8f bd
       0.006750035 0.017819855 -0.010781267 -0.07017618
0001b0 c3 76 3c 3d 81 53 98 3c 28 f0 69 3d d4 3a 1c bc
       0.046011698 0.018594505 0.057113796 -0.00953551
0001c0 23 d7 40 bc 8e d1 41 bc 9c 9b 27 bb 44 fb c8 bd
       -0.011770043 -0.011829747 -0.0025574928 -0.0981355
0001d0 8e 87 ae 3d 5e d3 4a 3d d2 92 19 3e 9d d1 a8 3c
       0.08521949 0.04951798 0.14997414 0.020607764
0001e0 a9 5b 46 3e 96 0e b8 bc 7e e9 a2 bc 94 75 8b bd
       0.19370903 -0.022467893 -0.019886728 -0.068095356
0001f0 eb 2d 59 bc 17 84 0c bd 9e cd 2f bd fd 95 13 3e
       -0.013255577 -0.03430566 -0.0429207 0.14412685
000200 ed 81 6d bd fc 46 cf 3d 85 cd a7 3b 07 00 66 3d
       -0.057985235 0.10120961 0.0051209354 0.05615237
000210 87 0e 2b bd e9 f6 34 bd 44 b0 82 bc dc bc df bd
       -0.0417619 -0.044180784 -0.01595319 -0.10924694
000220 9e 80 ee bd 33 cb 5e 3d f6 19 48 3c 12 93 18 bd
       -0.116456255 0.054393005 0.012213221 -0.037249632
000230 c4 3c d9 bc e3 cd 25 bc a1 19 07 bd 42 d1 4b 3c
       -0.026518233 -0.010119888 -0.032983426 0.012440028
000240 3d 2d f1 39 30 ed 40 3d c1 60 e9 bc b4 f5 f3 3c
       0.00046000807 0.0471012 -0.028488519 0.029780246
000250 13 43 2b 3c 25 1f 0f bd 04 91 16 bd 58 5e bd 3d
       0.010453003 -0.03494181 -0.03675939 0.0924651
000260 89 0b ee 3d ac 3e 81 bd 81 78 01 3d fa d0 56 bd
       0.11623294 -0.06310782 0.031609062 -0.05244539
000270 46 0a d5 bd 10 d0 b3 bc 92 08 00 3d a1 80 00 3d
       -0.1040235 -0.021949798 0.031258173 0.03137267
000280 8d 6f 3d 3d f6 b0 74 3c c0 fe bf bd 6c 65 96 3d
       0.04624896 0.014934769 -0.093747616 0.073435634
000290 1c 39 a8 bd d8 b4 24 3d fb 67 da 3c ff de 17 bc
       -0.08214018 0.04021153 0.02666091 -0.009269475
0002a0 de 26 0c 3d 9d 35 e7 3d 1e 14 88 3c d0 6e 1c 3d
       0.034216754 0.11289523 0.016611155 0.038191617
0002b0 52 bb ca 3d dd b7 c9 bd b0 8b dc bd c7 de 32 bd
       0.0989901 -0.09849522 -0.10768831 -0.04366949
0002c0 d0 32 5a 3d fe da 1e be fd 93 61 3c 35 43 53 bd
       0.053271115 -0.15513226 0.013768193 -0.051577765
0002d0 7c 69 c0 3c 26 c3 da 3c 93 98 08 be 42 59 fb bb
       0.023487799 0.026704382 -0.13339452 -0.0076705525
0002e0 8a 76 a4 3b 47 2c 07 3d 02 d6 ce 3c a4 71 70 3c
       0.005019014 0.03300121 0.025248531 0.014675532
0002f0 08 2f 38 3d e5 42 5a bd 32 1b de 3b 1b 64 b6 3d
       0.044966727 -0.05328645 0.0067781443 0.08905812
000300 c7 56 4a 3d 66 10 3b 3d 27 7f a9 bc 26 73 bf bc
       0.049399164 0.045669936 -0.020690514 -0.023370337
000310 95 67 a8 3d 11 2a 7a 3c 6d b4 0a bd ed b2 27 bd
       0.08222882 0.0152688185 -0.033863474 -0.04094212
000320 b3 ff b7 bc d2 df dd bd b2 72 ca bd e2 3b ba bd
       -0.022460794 -0.10833706 -0.09885158 -0.09093453
000330 f5 55 8b bd 06 c5 c3 bb d1 8b 0d 3d b6 3e 7e 3d
       -0.068035044 -0.0059744148 0.034557167 0.062071525
000340 87 98 6a 3c e4 67 bd bc ac 60 42 3b 17 05 ca bd
       0.014318592 -0.023120828 0.0029659672 -0.09864252
000350 ab f7 59 bb 55 73 c0 3d 88 ec 96 bd a7 e6 42 bd
       -0.0033259194 0.09396998 -0.073693335 -0.04758325
000360 7d 9e 71 ba b7 b5 c6 bc 8f 32 1e 3c 10 24 9f bd
       -0.0009217037 -0.02425657 0.009655609 -0.0777055
000370 1b 8b f8 bd e2 ed aa bc d1 d1 3b 3d 6c 9c e6 3d
       -0.12135907 -0.020865384 0.045854393 0.11260304
000380 51 15 99 bd c8 f1 1d bd f1 34 94 3c 82 18 7b 3d
       -0.07474769 -0.03856066 0.01809165 0.06130267
000390 64 e9 69 bb 84 b5 58 3d 31 e8 05 bd fe cf 40 bd
       -0.003569209 0.05290748 -0.032692138 -0.047073357
0003a0 84 5e b4 bd a4 84 de bd 00 18 4d 3d 0a 90 9f bd
       -0.0880709 -0.10865143 0.050071716 -0.07791145
0003b0 8b 7e f0 bb 08 e2 2b 3d 5d 08 90 bc 08 b1 8a bd
       -0.007339304 0.041963607 -0.017582113 -0.06772047
0003c0 d6 01 7a bc f2 ef 46 3d 9e 9a 38 3d d0 32 56 3d
       -0.015259227 0.048568673 0.04506933 0.052294552
0003d0 0a fc 49 3d 4b bf 33 bd 87 40 d1 3d 38 72 9b 3d
       0.04931263 -0.043883603 0.10217386 0.07590145
0003e0 99 77 37 3d 26 6e c6 bd 34 4c e3 bd a4 69 27 bc
       0.04479179 -0.09688978 -0.11098519 -0.010218058
0003f0 38 ec 16 3e fa e7 2b 3c b2 c9 ac bd 3a e7 f5 bc
       0.14738548 0.010492319 -0.08436908 -0.030017484

lstm.bias_hh_l0 f4 [512]
000000 08 c3 43 bd 2b f1 b8 bc 61 6b 13 3d 9a 6c 39 bd
       -0.04779342 -0.022575935 0.035991076 -0.045269586
000010 d3 02 cb 3d 87 4c bc bc 4d 25 45 3d 1d ca 3a bd
       0.09912648 -0.02298571 0.048131276 -0.045602906
000020 2d 50 d5 3d c1 c4 1a 3d 84 c3 a9 3d 92 4e b2 bb
       0.10415683 0.037785295 0.08289245 -0.005441495
000030 02 15 8c bc fa 16 82 3d 8c 59 5f bd 51 c1 b5 bd
       -0.017099861 0.06352039 -0.054528758 -0.08874763
000040 f2 ae 52 3d 3c ba 06 bb 73 29 e4 bb ad 23 87 bd
       0.051436372 -0.0020557782 -0.006962949 -0.065986015
000050 de 27 40 bd 8e 53 1c bb ab b1 f6 3c ef 0a d3 3c
       -0.04691302 -0.0023853513 0.030114016 0.02576205
000060 90 c5 58 3d 7b ce a0 3d 6c 5f 43 3b 68 1d c3 38
       0.052922785 0.07851883 0.0029811515 9.303802e-05
000070 20 db 29 bd 23 eb 7f 3d 53 e9 ee bb 70 71 fa 3a
       -0.04146874 0.062480103 -0.007290998 0.0019107293
000080 16 e3 2e 3d d2 75 f6 bc f4 7e 18 bd 7a cc ed 3d
       0.042697035 -0.030085478 -0.037230447 0.116112664
000090 96 53 31 bd a0 98 8d 3c bf 68 8b bd 3d 13 d9 3d
       -0.043292604 0.017284691 -0.06807088 0.105993725
0000a0 e8 fc 17 3c a8 29 61 bc 21 5e 49 bc 9e b0 8c bd
       0.009276606 -0.013742842 -0.0122905085 -0.068696246
0000b0 75 23 08 3e 7c 29 0d bd fc 83 87 3d fd 8f 02 be
       0.13294776 -0.03446339 0.06616971 -0.1275024
0000c0 0f bb a9 3d 7e 95 94 bd 42 2c 42 bd 99 ef b2 bd
       0.08287632 -0.07255076 -0.04740549 -0.08737106
0000d0 9c ed b2 3d 63 c7 35 3e 45 cb 42 bd 36 0a 87 3d
       0.08736727 0.17751841 -0.047557134 0.065937445
0000e0 41 fa e0 bb 89 b5 5a 3e 7a 58 ad 3d 74 70 00 bd
       -0.00686577 0.21358313 0.08464141 -0.031357244
0000f0 90 0a 25 3e 7f 35 d7 bd 47 c0 59 bd c1 55 35 bd
       0.1611731 -0.105082504 -0.053161886 -0.044271234
000100 b8 1d 97 bd 8d a2 a2 bd d6 73 a5 bd 64 06 12 3d
       -0.07378715 -0.0794116 -0.080787346 0.035650626
000110 ff 8f 9e 3d 17 b3 45 bd 61 19 9b bd cb 85 ae 3d
       0.07742309 -0.048266497 -0.075732 0.08521613
000120 bf 91 75 bc 46 d1 61 bc 70 86 22 bd 96 c0 91 bd
       -0.014988362 -0.013782805 -0.03967899 -0.07116811
000130 d5 cf cb 3c b2 35 a3 ba d6 91 00 bc b7 22 04 3d
       0.024879375 -0.0012451916 -0.00784727 0.03225967
000140 63 5a 07 be 9c e0 a6 3d 75 62 86 bd 4e 32 d4 3c
       -0.13218074 0.081483096 -0.06561748 0.025902893
000150 eb b9 2c bd 76 a4 3b 3d ee 32 30 3d ec aa 5d bd
       -0.042169493 0.04581114 0.04301732 -0.054118082
000160 28 9c ea bd 78 55 f8 bc 00 d2 4f 3d 6d 1f c2 bb
       -0.11455566 -0.030314192 0.05073738 -0.0059241564
000170 b5 57 05 bd 35 c7 ef 3c a0 0a ee 3d e2 d7 46 3b
       -0.032554347 0.029269794 0.1162312 0.0030341079
000180 08 58 f7 3c a8 d7 33 3d 38 64 59 bc cc d2 bb 39
       0.030193344 0.043906838 -0.013268523 0.00035824475
000190 bc 8b c6 3d 34 70 b8 bd aa dc 5a 3d 32 39 3b 3d
       0.09694621 -0.09005776 0.053433098 0.045708843
0001a0 5c 90 dd bd 90 53 89 3d 6d fe 91 bb 91 93 a0 3d
       -0.1081855 0.067053914 -0.0044553787 0.07840646
0001b0 f3 8f 69 bc 69 9b 2e bd 9c d3 0b 3d ae bf fd ba
       -0.014255512 -0.04262868 0.034137353 -0.0019359493
0001c0 f8 63 3e 3c 51 41 e6 bc fd 64 25 3d ef b5 e8 bd
       0.011620514 -0.028107317 0.040379513 -0.11362826
0001d0 1b bf d3 3c 13 de 32 bd ff 02 4b 3d bd 54 c9 3c
       0.025847962 -0.043668818 0.049563404 0.02457654
0001e0 c7 04 45 3e b8 58 3e bc 50 ff b1 bd 37 08 44 bb
       0.19240104 -0.011617832 -0.08691275 -0.0029912123
0001f0 9a 48 51 3d a6 10 81 3d f0 15 a7 bd a3 32 8d bb
       0.05109463 0.063020036 -0.08158481 -0.004309015
000200 7c d0 e9 bd 35 9c b4 3d e0 a6 9f 3d 3d 46 8a 3d
       -0.11416718 0.088188566 0.07795501 0.06751678
000210 a2 e0 b9 bd 01 97 8b bd fc 88 e3 3d dc 18 93 3c
       -0.090760484 -0.06815911 0.11110112 0.01795619
000220 87 fb b1 3c 62 07 94 bd 4f c5 92 3d c8 b3 2e 3c
       0.021726383 -0.07227971 0.0716654 0.01066298
000230 3a cb dc 3c 02 db 71 3d d5 f1 ee bd 16 c9 a3 bd
       0.026952375 0.059046753 -0.116672195 -0.079973385
000240 cd 0e 52 bd 38 a6 a4 bd a8 82 57 3d ec f6 ff 3c
       -0.051283646 -0.08039516 0.052614838 0.031245671
000250 31 e0 b2 bc 7c 8b 5f bc f9 24 a8 bd 70 b4 83 bd
       -0.021835418 -0.0136440955 -0.08210177 -0.064309
000260 6c 56 92 3c 8f ce e1 3c 48 df 77 3d 10 0f a3 bc
       0.017863475 0.027564315 0.060515672 -0.019904643
000270 03 d3 c2 3b 0f c5 08 3e 46 79 a5 3d 6b 9e c8 3d
       0.0059455647 0.13356422 0.08079772 0.09795841
000280 65 0d d9 bc 29 1c bb bd 5a cb 39 bd d4 e5 c3 3c
       -0.026495645 -0.091362305 -0.045359947 0.023913302
000290 b3 e2 52 3d 9e cc a1 bc 13 d5 7c bc 7c 2f 7b bd
       0.05148573 -0.01975089 -0.01543166 -0.06132458
0002a0 6a 30 bf bd 18 a6 a7 bc b8 5b 9f 3d 6d 96 9f 3d
       -0.09335406 -0.020464942 0.07781166 0.07792363
0002b0 7b 66 8b 3d 00 ff 24 3d bb 1e 91 bc 60 00 75 3c
       0.06806656 0.04028225 -0.017714849 0.014953703
0002c0 af 5e 07 3c 6a df 45 bd 95 62 c4 3d ec ff b0 3d
       0.00826232 -0.048308767 0.095891155 0.08642563
0002d0 82 f3 85 3b 0b 7f 66 3d 22 43 80 bc b4 02 75 3d
       0.0040878663 0.0562735 -0.015657011 0.05981703
0002e0 00 89 ba bd a3 a2 71 3d 98 ec 54 3d e8 d0 c2 3d
       -0.09108162 0.058992993 0.051983446 0.09512502
0002f0 65 94 98 bd f7 61 2e 3d 63 f9 0f bd ca 40 0b bd
       -0.07450179 0.042573895 -0.035149943 -0.033997335
000300 4d fe 90 3b 35 30 c4 bd 33 d0 ab bd 6b b6 6d bd
       0.0044248463 -0.09579507 -0.0838932 -0.058035295
000310 d3 90 5c 3e 5f a6 9f bd 2e 85 ca bd f9 02 1f bc
       0.21539621 -0.07795405 -0.09888683 -0.009705299
000320 e2 30 9d bd 06 74 3d bd 7f c3 33 be bd d3 71 3d
       -0.07675339 -0.046253227 -0.17555045 0.05903982
000330 54 f8 4b bc a1 02 63 bd 5a c5 e9 3d 54 82 65 bd
       -0.012449343 -0.05542243 0.11414595 -0.056032494
000340 66 65 f2 bd 38 54 12 3d 0e 5b 4c 3c 96 73 21 bd
       -0.118357465 0.03572485 0.012472881 -0.039416872
000350 30 5e 4f 3c 9c 3f 31 3d f5 67 9d 3d a8 65 40 bc
       0.012656733 0.043273553 0.07685844 -0.011742987
000360 a1 69 96 bd 65 fe d9 bc b2 df a0 bd 9c f3 ac 3d
       -0.07344366 -0.026610563 -0.078551665 0.08444902
000370 1d e4 50 3c b8 14 a5 bd f5 9f 0b bd ae 00 87 3c
       0.012749699 -0.080605924 -0.034088094 0.016479816
000380 e7 64 52 3c b9 8f 84 bd 1a 8e 8c 3d 00 1c 25 bd
       0.01284144 -0.064727254 0.06863041 -0.040309906
000390 62 8d ce bc a3 10 f8 bc 21 15 04 be da 5a a3 bd
       -0.025213901 -0.03028137 -0.12898685 -0.07976313
0003a0 ca 6e 55 3d 5f bc 80 bd c1 dc a3 3c 3e ac 79 3c
       0.05210761 -0.06285929 0.020002725 0.01523882
0003b0 35 21 c4 3b cc b9 00 3e f0 1b 93 bd 85 88 89 bd
       0.005985404 0.12570876 -0.07183063 -0.06715492
0003c0 60 34 64 3d c4 f3 13 bd 5f 3f c0 3d 8a 8f 00 3c
       0.05571401 -0.036121145 0.09387087 0.007846722
0003d0 fd cb 82 3c a3 a4 f3 bc 56 29 32 3c 0f 47 44 3d
       0.01596641 -0.02974159 0.010874113 0.04791933
0003e0 50 9d d3 3d c2 cb 19 3c 35 fe 71 bd d1 9c 73 bc
       0.10332739 0.009386959 -0.05908032 -0.014868931
0003f0 9a 82 c5 3c 61 aa 5d bd 62 5f 24 bc b9 72 19 3d
       0.024110127 -0.054117564 -0.010032507 0.037462924

lstm.weight_ih_l1 f4 [512, 128]
000000 dd 39 c0 3b 32 73 fe 3c 46 42 6a 3d b1 59 55 bd
       0.005866273 0.031060789 0.05719211 -0.05208749
000010 8f 6c ea bd b1 16 81 bd 38 20 04 3d 2a 97 f3 3c
       -0.11446487 -0.06303156 0.03225729 0.029735167
000020 7d b3 76 3d fa 57 ae bc e2 c2 e5 bd 97 e0 4c bc
       0.060229767 -0.021282185 -0.112188116 -0.012504718
000030 b3 11 d2 ba fb 4d 20 bd 5c 51 aa 3d 92 68 a6 bd
       -0.0016027003 -0.039136868 0.08316299 -0.08125414
000040 a5 f5 d5 bd 00 73 ea 3d 0c 8c cf ba ec e7 67 bd
       -0.104472436 0.11447716 -0.0015834584 -0.056617662
000050 2f 13 c7 bd d7 a9 a5 3d 3e 03 28 bd 17 60 b7 3c
       -0.09720456 0.08089035 -0.041018717 0.022384686
000060 65 d3 a4 3c 79 c9 9a bd c9 75 b9 3c b9 d3 70 3d
       0.020120332 -0.07557959 0.022639172 0.058795664
000070 3e 38 a8 bd d1 00 19 be 9e 62 c3 3c 41 c4 19 bd
       -0.08213852 -0.14941718 0.023850735 -0.037540678
000080 8e fa d4 bc e6 1a 0a bd 0c ce ce bd 11 ca 4f 3d
       -0.02599838 -0.03371706 -0.10097894 0.050729815
000090 18 8b 26 3d 0b 09 4b bb 7c 17 46 3d 51 2d 3e bd
       0.040659994 -0.0030980732 0.04836224 -0.046429936
0000a0 be 0e 81 bd 78 44 d0 bc da f3 4e 3d dd b4 25 bd
       -0.0630164 -0.025423273 0.050525524 -0.040455688
0000b0 74 79 a2 bc 30 74 99 3d d3 90 08 3d 9e fa c4 bb
       -0.019833304 0.07492864 0.03334124 -0.006011321
0000c0 3f 40 81 bd 18 35 84 bd 11 2b 28 3d 21 de 6d 3b
       -0.06311082 -0.06455439 0.041056696 0.003629573
0000d0 15 f2 7a bc 23 25 e4 3d bd ba 8f bc 19 e3 d5 3c
       -0.015316506 0.11139896 -0.017545098 0.026109265
0000e0 c0 1b e3 3d ed 93 52 3d fb 04 04 3c b7 f7 07 3e
       0.11089277 0.051410604 0.008057828 0.1327809
0000f0 06 4e 36 3e 41 eb bb bc ec ca a0 3d e5 58 97 bd
       0.17803201 -0.022939326 0.07851204 -0.07390002
000100 f6 04 ad bd b4 c0 d8 bd 3d 1e 6a bd 40 c3 ad 3d
       -0.08448212 -0.1058363 -0.057157744 0.084845066
000110 08 08 0d 3c bf b8 7c bd 9e 4d a9 bc 26 66 97 bd
       0.008607872 -0.061699625 -0.020666894 -0.0739253
000120 47 e2 d8 3c aa bf 65 bd cb 6e c4 bd 5c b8 1b 3d
       0.026475085 -0.05609099 -0.095914446 0.038017616
000130 b3 63 b6 3d e4 4e fb 3d 5f 53 95 bd e5 46 ca bd
       0.08905735 0.122709066 -0.072912924 -0.09876803
000140 7f cf cd bc f9 0d f5 3b 1c 35 de 3c 6e fb 3b 3d
       -0.025123356 0.0074784723 0.027124934 0.04589408
000150 2c 41 31 bd 22 ce 85 3d af 2a e9 bc 4b a5 84 3d
       -0.043275043 0.06533457 -0.028462736 0.0647684
000160 04 17 1e bd a5 c6 cc 3d ba 50 10 3d 99 4d 14 be
       -0.03859617 0.09998826 0.035233237 -0.14482726
000170 53 b2 fd 3c 7b 6a bd bc c3 c6 6a 3d e6 24 9e bd
       0.03096882 -0.023122063 0.05731846 -0.077218816
000180 d9 43 8d bd 63 78 d0 bd 5b b9 a5 bd a4 2f 8f bd
       -0.068977065 -0.10179212 -0.080919944 -0.069915086
000190 df 9d 56 3e 55 e0 90 bd 77 30 f5 3a 17 00 ec bd
       0.2095866 -0.07074038 0.001870646 -0.11523455
0001a0 60 12 0d 3e 5d e1 cd bd d4 95 c7 3b 5b 7c 9b bd
       0.13776541 -0.1005275 0.006090859 -0.07592078
0001b0 62 23 98 bd ff 44 02 bd 9d 84 12 bd 2d 6c 13 bc
       -0.07428624 -0.03180408 -0.035771 -0.008997959
0001c0 fa be a0 3d 44 bf e5 3c c2 6b 12 3c 8f eb f0 bd
       0.07848926 0.028045304 0.008936824 -0.11763679
0001d0 3b 60 64 bd 83 d7 b3 3c fa 3e 7f 3d 88 a6 65 3d
       -0.055755835 0.02195335 0.06231592 0.05606702
0001e0 79 bb 21 bc d1 9e 15 3e 18 c1 64 3c df 82 54 3d
       -0.009871357 0.14611365 0.013962053 0.05188262
0001f0 25 45 c1 3c b5 36 05 3d 9a 14 5a 3d 39 8e 3a 3d
       0.023592541 0.032522876 0.053242303 0.04554579
000200 eb b8 3c bd a8 50 82 3d 7e 10 8e bd 30 59 82 bc
       -0.04607479 0.0636304 -0.069367394 -0.015911669
000210 52 81 ae bd 71 72 02 3e a7 3c 0b 3c 68 d9 6e bd
       -0.0852076 0.12738968 0.008498347 -0.058312804
000220 35 dc c9 3d f5 9f 94 bb c9 37 12 3c 44 a5 88 bd
       0.09856454 -0.00453567 0.008924433 -0.06672147
000230 bc b3 07 3c 1e 96 c0 3d 8a 9d c5 bc 97 0a 90 bb
       0.008282598 0.094036326 -0.024122972 -0.0043957937
000240 84 7e 42 3e dd b3 a3 bd 10 cc 35 3c 2e ef a9 3d
       0.18993574 -0.079932906 0.011096016 0.08297573
000250 e4 a4 1e bd ee df 14 bd 74 34 2a bd 7a ad b1 3d
       -0.03873147 -0.03634637 -0.04155393 0.08675666
000260 57 ec 0f 3d 39 26 39 3d cc 4d a3 3d 7b ed 1c bd
       0.0351375 0.045202468 0.07973823 -0.038312417
000270 07 50 03 bb ff c8 60 bd 57 13 1d 3d c6 f3 22 3c
       -0.0020036714 -0.054879185 0.038348522 0.009945815
000280 40 40 81 bb a7 3a eb 3c 75 23 8e 3d 92 83 32 bb
       -0.003944427 0.028714491 0.06940357 -0.0027239067
000290 54 49 57 bc a3 90 9d 3d 81 42 c1 3c b5 c5 29 3e
       -0.013140041 0.07693603 0.023591282 0.16579325
0002a0 28 85 38 3a c1 1f 3c 3d 33 4c 37 3d f5 6c 9b 3c
       0.0007038885 0.04592872 0.044750404 0.018972853
0002b0 be 45 3c bd 55 a6 8a bc a3 0c c2 3d d5 ba 26 3d
       -0.04596495 -0.016925016 0.094750665 0.04070552
0002c0 4c 3e 12 be 92 ba b7 bc 0a fc a5 3d a7 5f 3a bb
       -0.14281577 -0.02242783 0.08104713 -0.002843836
0002d0 5d 0f 82 3c 07 52 dd 3d c8 1d b3 3d 28 1f 1e be
       0.015876466 0.10806661 0.08745915 -0.15441573
0002e0 e8 a3 65 bd 04 96 e1 bd 71 5a 50 3e 44 b7 71 bd
       -0.056064516 -0.11014941 0.20347 -0.059012666
0002f0 c4 33 94 bd 69 99 e5 bd 76 dd 05 3d 0a 7c bc bd
       -0.07236436 -0.11210901 0.032681905 -0.09203346
000300 17 e7 5d bd ac b4 4c be 35 b6 c4 bd 56 e3 a5 bd
       -0.054175463 -0.19990796 -0.09605066 -0.081000015
000310 b7 f1 98 3d bf 9c c1 3d 61 03 10 be f5 1e 20 be
       0.074679784 0.09453725 -0.14063789 -0.15636809
000320 8d 2e 6a 3c 71 a4 df 3d 9f 1d 6a bd 56 6a 94 bb
       0.014293325 0.109200366 -0.057157155 -0.004529278
000330 c3 72 e3 bc 11 f7 06 3d 70 60 ba 3d 1b cc 22 3c
       -0.027764684 0.032950465 0.09100425 0.009936358
000340 b8 a8 b2 bc 16 ba cd 3c 25 fa 9a bd 88 b9 ed 3d
       -0.021808967 0.025113147 -0.075672425 0.11607653
000350 b0 9f f8 bc 97 e9 3b bb f6 e7 b5 bd be e4 aa 3d
       -0.030349582 -0.0028673166 -0.08882134 0.0834441
000360 b8 7b d9 3b 22 2f e1 3c 14 ca f0 bd 47 72 07 3e
       0.006637063 0.027488295 -0.11757293 0.13227187
000370 5c f8 2f bb 3b 27 ac 3b fa 8c 1a 3e 40 3e 17 3b
       -0.0026850915 0.0052537 0.15092841 0.0023077875
000380 6c 29 90 3c 98 11 71 bd b6 86 eb bc 51 03 89 3b
       0.017597876 -0.05885467 -0.028750759 0.0041813035
000390 16 a7 5c bd eb fc af 3c 83 8f 8f bd 9a 99 c9 3c
       -0.053870283 0.021482905 -0.070097946 0.024609376
0003a0 7f 03 52 3d a3 21 54 bc 3b d2 5d 3d 95 2f 9f bd
       0.051272865 -0.012947473 0.05415557 -0.077727474
0003b0 e2 a1 ad bd 30 0f 7d bc 3f 8d ee bd 2e 23 29 3d
       -0.08478142 -0.0154455155 -0.11648034 0.041293316
0003c0 2d 93 b2 3d 55 99 08 3d 55 b2 27 3d f8 29 fa 3c
       0.08719478 0.033349354 0.040941555 0.03053759
0003d0 65 36 91 bc 33 ff c0 3c ac 44 f9 3d a4 b0 fa 3b
       -0.017726133 0.023559188 0.12171301 0.0076504517
0003e0 75 b5 9a bb 45 fe 13 be e5 f6 e7 3b 57 cf 98 3d
       -0.0047213384 -0.14452465 0.0070789927 0.07461422
0003f0 2b b9 c9 bc af 94 e1 3d d6 93 d8 3c 3c b2 09 be
       -0.024624428 0.11014687 0.026437681 -0.13446897

lstm.weight_hh_l1 f4 [512, 128]
000000 f4 8f d0 3c 85 f0 f7 bc ee 65 a9 bd e4 14 9f bd
       0.025459267 -0.030266056 -0.08271395 -0.077676564
000010 ed 01 09 bd 77 ca 04 bd 92 ba 11 be c5 63 9e bc
       -0.033449102 -0.032419648 -0.14231327 -0.019334683
000020 53 43 ce 3d f2 81 a9 bd 08 23 53 bc 9e af 82 bd
       0.10071435 -0.08276738 -0.01288677 -0.063811526
000030 c2 39 15 3d 47 01 85 bd db 12 53 bd 54 58 2b 3b
       0.036432035 -0.06494384 -0.051531654 0.0026145177
000040 b5 e1 98 3d c2 f0 88 bd 56 ab 88 bd 39 e2 b2 3b
       0.07464925 -0.06686546 -0.06673305 0.0054590967
000050 5a d5 02 3d cd ac ae 3c e4 2b 69 bc 36 41 f7 bc
       0.03194175 0.021322632 -0.014231656 -0.030182462
000060 fe ea ad 3c 04 c1 94 3c 06 f4 d4 3d 16 5a 00 ba
       0.021230217 0.018158443 0.10398106 -0.00048962364
000070 6b 78 d9 bd 74 ea 77 3c 4a be ea 3c a7 b7 a5 3d
       -0.10618671 0.015131582 0.02865519 0.080916695
000080 4a 9f 88 3d d0 07 7b bc ab e0 27 bd 75 db 7a 3d
       0.06671007 -0.015321687 -0.040985744 0.061244447
000090 f9 99 0b 3d 7b 82 bb bc d3 c4 24 bd 7c 4a 83 3d
       0.034082387 -0.022889366 -0.04022677 0.06410691
0000a0 c8 7a 6f 3d 17 34 ee bc 08 4e 86 bd 82 98 2f bd
       0.058466703 -0.029077573 -0.06557852 -0.042870052
0000b0 0c 50 43 bd c3 ab 41 3d 4c 6a 78 bd d7 73 d5 bc
       -0.04768376 0.047282945 -0.060648248 -0.026056213
0000c0 a2 93 9a bc b7 0a 51 bd 00 dc 4e 3d 69 38 3f bd
       -0.018869225 -0.05103561 0.050502777 -0.046684656
0000d0 d4 31 8c bd 03 d8 4e bd d3 e9 ef bc fd 0d 87 3d
       -0.068454415 -0.050498974 -0.0292863 0.06594465
0000e0 56 dc 2b 3d ae 97 c7 bc 1a d4 9a bd 18 c4 6a 3d
       0.041958176 -0.024364319 -0.075599864 0.057315916
0000f0 9e c2 1c bd a9 3a 54 3c f7 0a 8e 3d 32 39 c1 bd
       -0.03827154 0.012953439 0.06935685 -0.09434737
000100 7e fb 29 bd ff 65 9a bc 39 7e df bc 82 05 11 3c
       -0.041499607 -0.018847464 -0.027281867 0.008851411
000110 d0 40 d0 3d d0 c6 8e bc c6 8c 51 3d 0d 73 14 bd
       0.10168612 -0.017428786 0.051159643 -0.036242533
000120 62 6c a5 bd 7e 24 9f 3c 54 c5 2a 3c ab bc e9 ba
       -0.08077313 0.01942658 0.010423023 -0.0017832717
000130 69 c5 b8 3d 29 b5 79 3d 37 94 87 3d 86 92 40 bd
       0.09022028 0.060963783 0.066200666 -0.047014736
000140 49 30 b8 bd 44 1b 55 bd 84 f7 ae 3c 72 a2 39 bd
       -0.08993585 -0.052027956 0.021358259 -0.045320936
000150 b0 49 08 bd b3 fc c9 bc 10 67 23 bc c3 fb 1b 3d
       -0.0332734 -0.02465663 -0.0099733025 0.038081896
000160 d7 71 d6 3b 19 f7 e5 bc f8 69 99 bd 94 09 b2 bd
       0.0065443325 -0.028071927 -0.07490915 -0.08693233
000170 c2 0d ec 3d cf 1b 63 bc f9 04 5b 3d 59 3d 9d 3c
       0.115260616 -0.013861611 0.05347154 0.019194292
000180 51 48 a3 3c 54 f5 34 bc 08 fe ac 3d dc 58 1f bd
       0.019931944 -0.011044819 0.0844689 -0.038903102
000190 ba 49 34 bd c7 08 22 3d 4b fd 50 3d d0 42 84 3d
       -0.044015624 0.039559152 0.05102281 0.06458056
0001a0 df 29 2a bc 51 d5 05 be a9 3c 96 bd 66 df da 3c
       -0.010385959 -0.13069655 -0.07335789 0.026717853
0001b0 9d ff 20 3d 75 c5 2b bd 4b bf bc bd dd 13 cf 3c
       0.03930627 -0.041936357 -0.09216174 0.025278026
0001c0 05 a5 6e 3d a0 9a e4 bb dd a9 ae 3d ee 0e 81 3c
       0.058262844 -0.0069764405 0.085284926 0.01575419
0001d0 58 ac db 3c db fa 9c bd be 8b a8 bd a1 f4 94 3d
       0.026815578 -0.076650344 -0.08229779 0.07273222
0001e0 1d 6e 8b bd 9d 83 cc bc 1c 7c a5 3d d9 26 de 3c
       -0.06808112 -0.024965102 0.080803126 0.027118133
0001f0 7e ea 83 bc b5 7a 60 3c 81 24 6b 3c 95 70 6d bd
       -0.016103026 0.013701131 0.014351965 -0.057968695
000200 dc 78 a1 bb 94 bc 8e bd 70 8b 53 3d bf 57 a1 3d
       -0.0049277376 -0.06969562 0.05164665 0.07878064
000210 80 23 1d be 9b 61 4e bc b9 bb f7 3c b7 87 8d 3d
       -0.15345573 -0.012596513 0.03024088 0.06910651
000220 8b bc b7 bc 0b 72 70 3d 78 f9 c4 bc 00 bc 0f 3e
       -0.022428771 0.05870251 -0.024044737 0.1403656
000230 ac d4 0e 3d ad b3 13 3d 6c 22 11 bd 94 10 2d b7
       0.03487079 0.036060024 -0.035433218 -1.0315463e-05
000240 e6 58 fa bd 6f 47 b9 3d 50 26 68 bd c3 0e 83 bd
       -0.12223987 0.09046828 -0.056677163 -0.063993
000250 4d 1a 10 bc cb d8 5a 3d b1 36 1a be 55 1e 8b bd
       -0.008795333 0.053429406 -0.15059926 -0.06792895
000260 85 a8 8f 3c 0c 91 11 bd 0f a0 5c 3d 05 35 4c 3c
       0.017536411 -0.035538718 0.05386358 0.012463813
000270 15 51 8e bd 21 af 80 3d e5 fb 42 bd fc f2 04 3e
       -0.06949059 0.06283403 -0.047603507 0.12983316
000280 54 7f 96 3d 0d 82 c6 3d 05 7c 47 bd 67 cd 3c bd
       0.07348505 0.09692774 -0.04870226 -0.046094324
000290 d4 02 d8 3c 79 f9 b5 bd 8d c6 22 bc d8 fd 84 3c
       0.026368536 -0.08885474 -0.0099350335 0.016234323
0002a0 cf d4 46 bd 12 2a b3 3c 64 1a 99 3d 25 c6 8c 3d
       -0.048542794 0.021870647 0.07475737 0.068737306
0002b0 a7 51 8e 3c 30 dc a9 3d 16 1b ba 3c 9e e8 27 3e
       0.01737292 0.082939506 0.022717994 0.1639733
0002c0 5e 50 4d 3d c8 4b 5f 3c 4f e1 18 3e 6f cf 32 3d
       0.050125472 0.0136289075 0.14929698 0.043654855
0002d0 8d 3a 9f bc d2 ce 1a bd 2a e0 9d 3c 5d 44 6a 3d
       -0.019437099 -0.037794895 0.019271929 0.057194103
0002e0 28 da e8 bd 45 83 46 bd eb 03 05 bd e6 20 b3 bc
       -0.11369735 -0.048465032 -0.03247444 -0.021866273
0002f0 a4 84 a0 3d 02 bd b2 3d 2b 85 a1 bd 42 9a ab bd
       0.07837799 0.08727457 -0.07886728 -0.08379032
000300 bc 24 90 bc a4 54 03 bd 64 52 53 bd 5a 31 0c 3e
       -0.017595641 -0.03206314 -0.051592246 0.13690701
000310 f8 0e 65 bd ff c9 71 bd d3 0f 38 bd 29 3b c7 3d
       -0.05592248 -0.05903053 -0.044936966 0.09728081
000320 eb 18 8c 3d 27 da 80 3d 9a b4 c7 3c dd 1d 53 3d
       0.0684069 0.06291609 0.02437811 0.05154215
000330 a2 58 fe bd e1 6a 10 be 77 15 e2 bc 1c 4b 41 3d
       -0.12419249 -0.14103271 -0.027598126 0.04719077
000340 ec 59 c8 bd ad d8 69 bd 3d a6 79 3c c6 fc cb bc
       -0.09782776 -0.057091404 0.015237388 -0.024900805
000350 c5 34 f9 3c 15 4f b0 bd fd e7 1b be a8 27 da bb
       0.03042067 -0.08608834 -0.15225215 -0.0066575594
000360 5d a0 dc bd 93 1e 57 bd e6 64 89 bc ad 42 49 bd
       -0.10772774 -0.052519392 -0.016771745 -0.049135853
000370 34 dd 32 3d 41 9c 2d 3d 97 bc e1 bc 42 a1 a8 3c
       0.043667987 0.042385343 -0.027555747 0.020584706
000380 99 9d 9d 3d f3 cf 22 be a3 42 82 bd d0 6f 84 bd
       0.07696075 -0.15899639 -0.06360366 -0.06466639
000390 bd aa 08 bd 1a 28 a4 3b b7 ec 62 3c 66 81 00 3d
       -0.033365954 0.0050096633 0.0138503825 0.031373404
0003a0 51 08 77 3d f9 4a bc bd 94 c0 e8 3b f6 31 70 3d
       0.060310666 -0.091939874 0.007103035 0.058641396
0003b0 f6 76 2f bd 63 fb 8e 3d 36 ff 10 bd 69 91 07 bb
       -0.04283806 0.06981542 -0.035399638 -0.0020686036
0003c0 3e cb 54 3d 02 66 91 3b 1c 6c ae 3d 10 92 86 3d
       0.05195164 0.004437209 0.08516714 0.06570828
0003d0 75 89 1f bd b2 2f d0 3c e9 26 e6 3d 9f 18 47 3b
       -0.03894945 0.025413368 0.1123789 0.0030379666
0003e0 38 a2 45 bd 9e d8 4f 3a 29 e5 d1 3d 73 72 e7 3c
       -0.048250407 0.0007928702 0.10248787 0.028252816
0003f0 86 21 34 3d 10 3f 28 3d 8e 64 32 bd 88 3a da 3d
       0.043977283 0.041075766 -0.043552928 0.10655695

lstm.bias_ih_l1 f4 [512]
000000 7b c9 f2 3b 9a 58 61 3b 16 39 0f 3d e2 ab 83 bd
       0.0074092722 0.0034385086 0.03496655 -0.064292684
000010 c2 3f ed 3c e0 57 31 bd 96 13 ce 3c 93 c2 07 bd
       0.028961066 -0.043296695 0.025155824 -0.033144545
000020 64 41 9e bc 14 75 34 3d 8a 74 b1 bd 0c 91 05 bd
       -0.01931829 0.044056967 -0.08664806 -0.03260903
000030 42 c7 65 bd 62 77 16 3d 91 42 bd bc 30 82 f8 3c
       -0.05609823 0.036734946 -0.02310303 0.030335516
000040 df c0 1d bd 02 56 b1 3d 21 1b 02 bd ea ef 06 3d
       -0.038514014 0.08658983 -0.031764153 0.032943644
000050 eb 66 ba bd 92 c3 41 3d a4 67 fe 3c cb c2 8b bd
       -0.09101661 0.04730565 0.03105528 -0.06824263
000060 c3 0f 73 3a 8f 47 23 3d 93 45 96 bd f2 b1 56 3d
       0.0009272063 0.039863165 -0.07337489 0.052415796
000070 57 ca db 3b e3 c3 4b 3d d3 44 0c bd ea 0e 9e bc
       0.0067074704 0.04974736 -0.034245323 -0.019294221
000080 2b 0b a4 bc e8 35 7d 3c d2 28 b5 3c a6 74 ba 3d
       -0.020024857 0.015454747 0.022114191 0.0910428
000090 0f 5f 81 bd 3f cd 7b 3c 26 ed 84 bd 31 69 44 bd
       -0.06316959 0.015368759 -0.06490545 -0.04795188
0000a0 6a 49 cf bd 45 2d 35 3c 37 fc 3f 3d dc 3f 31 bd
       -0.101214245 0.011058156 0.04687139 -0.04327379
0000b0 a8 ca cb 3b 5f 77 76 3d dc 3b 4d bd b1 32 1e 3d
       0.006219227 0.060172435 -0.050105914 0.03862256
0000c0 97 8d 2d 3d 5a 5d 01 3d 63 35 c0 bc a0 f0 ac 3d
       0.04237136 0.031583168 -0.023462957 0.08444333
0000d0 97 09 ad 3d aa ce 8b bc f5 18 af 3c 2f a9 d3 3c
       0.08449095 -0.017066319 0.021374205 0.025837509
0000e0 7d d4 0d 3d 4f 11 80 3b 4a ce 7f 3d 50 d5 29 3c
       0.034626473 0.0039083133 0.062452592 0.010365799
0000f0 b6 e0 b3 3d 3e 60 62 3d d9 e5 39 3d c3 aa 30 bc
       0.087830946 0.055267565 0.045385215 -0.0107829
000100 94 20 f1 3d 1c 2f 5b bd 9d 0f 81 bd a0 bf 7b 3c
       0.11773792 -0.053511724 -0.06301806 0.015365511
000110 86 a9 05 bd ac e9 c6 3d d6 41 2e bd 10 36 89 3d
       -0.032632373 0.09712538 -0.042543255 0.06699765
000120 92 a0 91 bd ed dc 42 3d a0 25 3b bc 5b 3c 07 bd
       -0.071107045 0.047573972 -0.011422545 -0.033016544
000130 21 5b 31 3d ce 95 94 bd ea 7c 41 3d 85 68 ff 3c
       0.043299798 -0.072551355 0.047238268 0.031177768
000140 4b 88 4c bd cd 70 e7 3c 5d 2c c8 3d 47 df 10 3d
       -0.049934667 0.02825203 0.097740866 0.035369184
000150 47 25 44 3d 9c 1e 91 bb f4 c3 9f bd 10 36 4b bd
       0.047887113 -0.0044286977 -0.07801047 -0.049612105
000160 01 bb d9 bd 27 2c cc 3d a6 c1 55 bc 7c d6 1a bd
       -0.10631371 0.09969359 -0.013046658 -0.037802204
000170 3e 07 d7 3a cc 53 a7 3c a9 e0 83 3c bb d3 85 bc
       0.0016405357 0.0204257 0.016098337 -0.016336313
000180 0a ec 9e 3c 38 f1 24 bd a2 57 ea bb a6 45 83 bd
       0.019399662 -0.040269107 -0.00715156 -0.06409769
000190 52 5e f5 3b a1 3c d5 3c e0 40 c1 3d b6 61 4b 3c
       0.0074880505 0.026029887 0.09436202 0.012413433
0001a0 d1 8a e3 3d f5 b9 96 bc 8a 1d ea bc f8 9b cb 3d
       0.111104615 -0.018399218 -0.028578538 0.09941858
0001b0 4c 0c aa 3d 72 1d 3b bd d4 9d 04 3d f4 cf fd bd
       0.08303127 -0.045682378 0.03237708 -0.123931795
0001c0 f9 dc 86 3d ab c6 9e bd 2b b5 48 bd 28 9e b0 bd
       0.06585116 -0.07752737 -0.0490009 -0.08623916
0001d0 9b fd 45 3b e5 19 62 bd 80 e9 69 bd ea 19 01 bd
       0.0030210975 -0.055200476 -0.05710745 -0.031518854
0001e0 cd 57 a5 3c 08 7d 1d 3d 7c 2a de 3d 30 a3 35 bc
       0.020183468 0.038449317 0.10847947 -0.01108627
0001f0 34 6e ce 3d 78 7e 57 3b 37 be 81 bd 0a 5a 00 3c
       0.10079613 0.0032881778 -0.06335109 0.007833967
000200 3c 32 98 bd 98 7d 25 bd 37 7f f3 3c b0 64 8a bd
       -0.074314564 -0.04040298 0.029723747 -0.06757486
000210 48 3c 14 3d c7 b0 55 bc 71 58 0f 3d 30 41 50 bd
       0.0361903 -0.013042635 0.034996454 -0.050843418
000220 b6 cd 1a 3d 3f c4 9d 3d 9b c3 0f 3d a7 2e 23 3d
       0.037793837 0.077034466 0.035098653 0.039839413
000230 9c e4 c9 3d 60 36 6e bb 24 2f 75 bd 5c b8 0b 3d
       0.09858057 -0.0036348328 -0.05985941 0.034111366
000240 5b 25 26 3d 66 e1 2d be d8 c9 97 3d 0c 1f 49 3d
       0.04056297 -0.16980514 0.074115455 0.049101874
000250 5e 50 14 be 19 1b ab ba bc a1 dd bc bb 6c 58 bd
       -0.14483783 -0.001305434 -0.02705466 -0.05283807
000260 33 cc 09 3d 6d a4 9c bd 67 c2 07 3b bd 0e 92 bd
       0.033642005 -0.07648549 0.0020715238 -0.07131717
000270 4c 86 b7 bd 35 b2 c3 bd 37 84 39 3d 3e e4 e4 bb
       -0.08961162 -0.09555475 0.045292106 -0.0069852164
000280 95 dd 8e 3d bb 1f 7c 3d ee 81 33 3d ee ab b7 3d
       0.06975857 0.061553698 0.043825082 0.0896834
000290 6e 69 86 bd b5 b3 6a 3d 0f 10 b7 bd 4f c9 c5 3c
       -0.06563078 0.05730029 -0.0893861 0.024143843
0002a0 d3 48 ec bd 9e e1 91 bb b5 11 9a 3b 03 ab 9f bc
       -0.115373276 -0.0044519445 0.004701818 -0.019490724
0002b0 de c0 5a 3d ca 48 6c bd 16 28 3c 3d 28 11 ab bd
       0.05340659 -0.057686605 0.045936666 -0.08352882
0002c0 93 e3 dd 3c 79 c7 7e 3d 23 25 18 3d 5d 6c 90 bc
       0.027086055 0.06220195 0.03714479 -0.017629797
0002d0 36 16 b2 bd 4e c8 64 3d 46 a6 a6 bd fe 28 d6 3c
       -0.08695643 0.055855088 -0.08137183 0.026142593
0002e0 c4 54 9f 3d 77 76 5a bd ad 73 95 bd eb 50 8a bd
       0.0777984 -0.053335633 -0.07297454 -0.06753715
0002f0 0c 2f 6f 3d 02 26 3d bd 4f 39 b3 bd 1f 78 b9 bd
       0.058394477 -0.046178825 -0.08751165 -0.090561144
000300 15 99 b0 3c da 7d d9 3d 6e ee dc 3d a8 20 20 bc
       0.02155737 0.106197074 0.10787664 -0.009773411
000310 71 ca df bc e5 7a 8c bc 04 cd c1 bc dd 77 ee bc
       -0.027318211 -0.017148444 -0.02365733 -0.02910989
000320 ef f3 c3 bb dd 9b b9 bd dd a3 bb 3c a3 8b 9d bc
       -0.005980007 -0.09062932 0.022905285 -0.019231623
000330 c8 90 d2 3d 68 ce bf bc 52 a4 57 bd e3 3b 58 3d
       0.10281521 -0.023413852 -0.052646942 0.052791487
000340 3f 5a bf 3d 70 01 85 3c ab 4d 8b bd 91 b5 c6 3c
       0.09343385 0.016236037 -0.06801923 0.0242565
000350 57 02 c4 3d 0d c2 77 3d 3a 7e 8d bc 88 08 c8 bd
       0.09570759 0.060487796 -0.017272104 -0.09767252
000360 84 dd 28 bd a0 ab 7b bd b5 ff 28 bd f6 00 37 3d
       -0.04122688 -0.06144297 -0.041259486 0.04467865
000370 24 42 b2 bc c2 2f 1f bd 3f 62 97 bd fb 95 3d bd
       -0.021760054 -0.038863905 -0.07391786 -0.04628561
000380 7f 53 48 bd 4e 85 0d 3c bd 9a b3 bd 1e cf 36 3d
       -0.048907753 0.008637739 -0.08769748 0.044631116
000390 a9 61 02 bd 42 17 a5 bd ae f3 aa 3d e3 dd 49 3d
       -0.031831417 -0.08061077 0.083472595 0.049283873
0003a0 12 6a ce 3c f2 df 8e 3c 0e 03 68 3b b4 77 a0 bd
       0.025197063 0.01744077 0.0035402211 -0.078353316
0003b0 90 64 b9 bc ac 86 23 bd 17 5f 8a bd 0f 89 a2 bc
       -0.02263096 -0.039923355 -0.06756418 -0.019840745
0003c0 31 73 a5 bd b0 73 d7 bd 0e c8 14 3c a4 35 cf bc
       -0.08078612 -0.105201125 0.0090809 -0.025294133
0003d0 b8 c3 9b bd 0f 44 b0 bb cd 82 04 3d cf aa 8f 3d
       -0.0760569 -0.005379207 0.032351304 0.07015001
0003e0 3c 35 0e 3d b4 b4 e9 b8 7a a7 8b bd 1b 0d b8 3c
       0.034718737 -0.000111439644 -0.06819053 0.022467187
0003f0 c8 57 a7 bc 6f 8c 5e 3d 96 07 b4 bc 73 fd 48 3d
       -0.0204276 0.054333147 -0.021976274 0.049069833
